…
    train_gnn(tr_data, val_data, te_data, tr_inds, val_inds, te_inds, args, data_config)
  File "F:\UNIVERSITY\UNIVERSITY_DOCUMENTS\BIG_DATA\Doan\baseline\multi_gnn\Multi-GNN\training.py", line 230, in train_gnn
    logging.info(summary(model, sample_x, sample_edge_index, sample_edge_attr))
Message: '+---------------------------------+------------------------------------+----------------+----------+\n| Layer                           | Input Shape                        | Output Shape   | #Param   |\n|---------------------------------+------------------------------------+----------------+----------|\n| GINe                            | [10245, 1], [2, 6000], [6000, 4]   | [6000, 2]      | 38,535   |\n| ├─(node_emb)Linear              | [10245, 1]                         | [10245, 66]    | 132      |\n| ├─(edge_emb)Linear              | [6000, 4]                          | [6000, 66]     | 330      |\n| ├─(convs)ModuleList             | --                                 | --             | 26,532   |\n| │    └─(0)GINEConv              | [10245, 66], [2, 6000], [6000, 66] | [10245, 66]    | 13,266   |\n| │    └─(1)GINEConv              | [10245, 66], [2, 6000], [6000, 66] | [10245, 66]    | 13,266   |\n| ├─(emlps)ModuleList             | --                                 | --             | --       |\n| ├─(batch_norms)ModuleList       | --                                 | --             | 264      |\n| │    └─(0)BatchNorm             | [10245, 66]                        | [10245, 66]    | 132      |\n| │    │    └─(module)BatchNorm1d | [10245, 66]                        | [10245, 66]    | 132      |\n| │    └─(1)BatchNorm             | [10245, 66]                        | [10245, 66]    | 132      |\n| │    │    └─(module)BatchNorm1d | [10245, 66]                        | [10245, 66]    | 132      |\n| ├─(mlp)Sequential               | [6000, 198]                        | [6000, 2]      | 11,277   |\n| │    └─(0)Linear                | [6000, 198]                        | [6000, 50]     | 9,950    |\n| │    └─(1)ReLU                  | [6000, 50]                         | [6000, 50]     | --       |\n| │    └─(2)Dropout               | [6000, 50]                         | [6000, 50]     | --       |\n| │    └─(3)Linear                | [6000, 50]                         | [6000, 25]     | 1,275    |\n| │    └─(4)ReLU                  | [6000, 25]                         | [6000, 25]     | --       |\n| │    └─(5)Dropout               | [6000, 25]                         | [6000, 25]     | --       |\n| │    └─(6)Linear                | [6000, 25]                         | [6000, 2]      | 52       |\n+---------------------------------+------------------------------------+----------------+----------+'
Arguments: ()
2025-06-22 23:41:22,603 [INFO ] +---------------------------------+------------------------------------+----------------+----------+
| Layer                           | Input Shape                        | Output Shape   | #Param   |
|---------------------------------+------------------------------------+----------------+----------|
| GINe                            | [10245, 1], [2, 6000], [6000, 4]   | [6000, 2]      | 38,535   |
| ├─(node_emb)Linear              | [10245, 1]                         | [10245, 66]    | 132      |
| ├─(edge_emb)Linear              | [6000, 4]                          | [6000, 66]     | 330      |
| ├─(convs)ModuleList             | --                                 | --             | 26,532   |
| │    └─(0)GINEConv              | [10245, 66], [2, 6000], [6000, 66] | [10245, 66]    | 13,266   |
| │    └─(1)GINEConv              | [10245, 66], [2, 6000], [6000, 66] | [10245, 66]    | 13,266   |
| ├─(emlps)ModuleList             | --                                 | --             | --       |
| ├─(batch_norms)ModuleList       | --                                 | --             | 264      |
| │    └─(0)BatchNorm             | [10245, 66]                        | [10245, 66]    | 132      |
| │    │    └─(module)BatchNorm1d | [10245, 66]                        | [10245, 66]    | 132      |
| │    └─(1)BatchNorm             | [10245, 66]                        | [10245, 66]    | 132      |
| │    │    └─(module)BatchNorm1d | [10245, 66]                        | [10245, 66]    | 132      |
| ├─(mlp)Sequential               | [6000, 198]                        | [6000, 2]      | 11,277   |
| │    └─(0)Linear                | [6000, 198]                        | [6000, 50]     | 9,950    |
| │    └─(1)ReLU                  | [6000, 50]                         | [6000, 50]     | --       |
| │    └─(2)Dropout               | [6000, 50]                         | [6000, 50]     | --       |
| │    └─(3)Linear                | [6000, 50]                         | [6000, 25]     | 1,275    |
| │    └─(4)ReLU                  | [6000, 25]                         | [6000, 25]     | --       |
| │    └─(5)Dropout               | [6000, 25]                         | [6000, 25]     | --       |
| │    └─(6)Linear                | [6000, 25]                         | [6000, 2]      | 52       |
+---------------------------------+------------------------------------+----------------+----------+
2025-06-22 23:41:27,778 [INFO ] Train F1: 0.0013
2025-06-22 23:41:27,921 [INFO ] Validation F1: 0.0000
2025-06-22 23:41:27,922 [INFO ] Test F1: 0.0000
2025-06-22 23:41:28,039 [INFO ] Train F1: 0.0000
F:\UNIVERSITY\python_venv\antifraud_venv\Lib\site-packages\sklearn\metrics\_classification.py:1706: UndefinedMetricWarning: F-score is ill-defined and being set to 0.0 due to no true nor predicted samples. Use `zero_division` parameter to control this behavior.
…
